7_test_trt_benchmark/models/super_resolution_bsd500-bs2.onnx (onnx, 273491 bytes, 8 tensors)

1 f4 [64, 3, 5, 5]
00000000: 4a8e 1c3e 6f96 043e 6e98 523d 485c a83d
00000010: 1e33 ee3d e8c4 f13d b659 1b3d b4b9 5f3d
00000020: 0ed9 20be 75cf 603e 47f1 2cbe 9d27 66be
00000030: ef44 2b3e 520e f13c 6dbe 5cbe 4876 3dbe
00000040: 7337 50bc f4a7 aa3d 4e4f 6abd 4fa5 2abd
00000050: 946b 1fbe 58d0 f8bd a41b c93b 6194 bf3c
00000060: 9812 26bd 7af8 613b 5f38 25be 44ed 7abd
00000070: 0ff4 883e cc6a 84be 15a5 d4bd d2cd 38bd
00000080: 21d4 893e 47f6 a4bd 94a8 13bd eed5 373e
00000090: f1dd 49be 8f10 8d3e c982 bdbc 9c2c 5dbd
000000a0: b3a9 8b3c 2e8f 903c 9ed9 f13d bd14 cd3d
000000b0: c68f c03e 5434 cc3d 7d90 babd 03d3 bbbd
000000c0: 6704 2bbe 31e6 8dbd b22c 6dbd c793 b839
000000d0: ac2e bfbe 50dd 30bc e517 4e3a 9510 d13d
000000e0: 5e66 c5bc 1d49 dcbe af18 303e 465f 18bc
000000f0: b796 f33d 726a b6be 886a 1c3e db34 063e
00000100: e484 933d 0dcd 28be e153 483d afe5 053e
00000110: 5e38 2c3e 6cf5 403e bc84 3a3d db39 0a3d
00000120: 6118 c6bc c9c3 933e bd6e 30be c3f5 e0bd
00000130: ea9d f93b 5cd3 3cbd d085 86bd 49ba cc3d
00000140: cf62 873d 25ba 653e c979 933e 1bdf 64bd
00000150: fbc4 dd3b 2eec 553d 6da1 b0bd 38d4 a93c
00000160: 41e3 5bbc bbae cabc 7c5f 72bd 0ecd 203e
00000170: 485b 70bd 8add 58be 5383 623e f864 593e
00000180: 610f ce39 1951 e13e cd5d d23a 7536 d33e
00000190: cd0f ab3e 07f2 0dbe eece 603c 5157 3a3e
000001a0: 5560 a7be 50da 32bd d78e 353d 2a47 22bd
000001b0: d90f a3ba bbe2 a03d fe05 92be de19 053e
000001c0: 2404 803d 4d15 0bbe 3a3f 773e 83ac aabe
000001d0: 4e8d 533d e772 c63b 4433 493e f8f5 ecbc
000001e0: c34f ea3c 0c58 10be 94b2 243d f6b2 7cbd
000001f0: c360 74be a1f9 11be 1fbf 773b 9966 003d
00000200: f970 9c3d 0935 a5be d288 413e aea7 1cbd
00000210: d91e 2e3e 5033 ba3c fd20 823e 2ed9 81be
00000220: 3ae5 06bd 60be 4e3d ba01 5f3d cf58 d3bd
00000230: a79a 89bc 27a4 583e 34e9 9fbd da29 32bd
00000240: 210b 35be 27cb 9e3d 1d26 24be b8c2 233e
00000250: 313f 3c3e f5aa 533d 4656 2bbe 5ba6 0abe
00000260: 03cb 843e cacd 86be a82c 653d 5096 0cbe
00000270: 1d88 993d 8901 f2bb 7e81 f6bd c359 963b
00000280: cd55 85be 2eff ac3d 8517 023e 4072 783c
00000290: 5752 4dbe 7d0b 98bc 8e86 51bb 6e30 d43d
000002a0: 1648 7e3e 99d4 bebc 0ca9 bc3d 0586 3e3e
000002b0: 6e3f 88bd 559b 9a3d 9c67 563e 6608 de3b
000002c0: b9d3 cd3d f9e1 48be bac0 00be d831 a8bd
000002d0: 552b 263e a207 07be 2a7d 73be e68d a33e
000002e0: 355f 4a3d 252d d13d f9dc f0bd c249 853e
000002f0: fc51 f7be 1a01 a93d 7c8b d13e def2 463e
00000300: 53e0 183e c780 c03d 8ded bbbd 01ab 91be
00000310: a1aa 37be 71ba 67bd c834 0c3e d27d 2cbe
00000320: da4e 82bc 3fd4 483e 5d9b 57be 5477 eb3c
00000330: ac8e 1a3e 0f57 d2bc 756a 3bbe c5dd 65bc
00000340: 1b74 fc3b 049c c93d 082b 02bd c850 cc3d
00000350: 7a93 4ebe a7e3 0c3d ce63 c7bd 79bb ac3d
00000360: e8c1 f13c 9d8a bcbd e167 a93b 593e 8f3d
00000370: e086 833e 5657 16be 4907 24be b947 24bd
00000380: f7ec 99be 9b01 643e 9c96 203c 0f27 1cbb
00000390: 10e5 9cbd db4d b1bd ee45 c23d 830a 1e3c
000003a0: 2df5 4c3e 0f93 9ebe 65e0 e8bc 3b60 db3d
000003b0: 5d9b 47be eec8 173e 7dc2 86be 9f23 b3bc
000003c0: 5466 02bd 4eb1 7e3e 43cf 8ebd 8be6 24be
000003d0: 5626 343d ae8d a3be 4c95 303e 2420 f0bb
000003e0: e4a5 f73d 6d9f a53d 0dcc 60bd 1eff 98bd
000003f0: 8f82 243d 3fa0 9e3d 4094 113e dce7 0f3e
0.15288654 0.12948011 0.0514149 0.08220726 0.116308436 0.11805135 0.037927352 0.05462046
-0.157078 0.21954139 -0.16888915 -0.22476049 0.16725515 0.029425774 -0.21557017 -0.18502152
-0.012708533 0.08332816 -0.057204537 -0.041661557 -0.15568382 -0.121491134 0.006137328 0.023386182
-0.040545076 0.003448038 -0.16134785 -0.06126143 0.26748702 -0.2586273 -0.103830494 -0.04511816
0.26919654 -0.08054786 -0.03604944 0.17952701 -0.1971357 0.27551696 -0.023133652 -0.05399762
0.017048692 0.017646398 0.11809085 0.10013721 0.3760969 0.09970918 -0.0910959 -0.09171107
-0.16700898 -0.06928671 -0.057903953 0.00035205318 -0.37340295 -0.0107949525 0.0007861837 0.10208241
-0.024096664 -0.4302453 0.17196916 -0.009300059 0.11893981 -0.35628086 0.15275013 0.131061
0.07203081 -0.1648447 0.04890812 0.13075899 0.16818377 0.18843621 0.04553674 0.03374658
-0.024181547 0.2886031 -0.17229743 -0.10984375 0.007617702 -0.046100006 -0.065684915 0.099964686
0.06610643 0.2243429 0.28803852 -0.055876832 0.0067678667 0.05222719 -0.086245395 0.020731077
-0.013420881 -0.024741521 -0.059173092 0.15703222 -0.058680803 -0.2117826 0.22120409 0.21229923
0.0003930284 0.44007185 0.0016049683 0.41252485 0.33410493 -0.13861857 0.013721211 0.18197371
-0.32690683 -0.04366523 0.044325676 -0.03961865 -0.0012440636 0.078557454 -0.28520197 0.12998149
0.0625079 -0.13582344 0.24145213 -0.3333474 0.05164843 0.006056178 0.19648463 -0.02892588
0.028602486 -0.14096087 0.040209368 -0.061694108 -0.23865037 -0.14255382 0.0037803126 0.031347845
0.07638735 -0.32267025 0.18899849 -0.03824585 0.17003955 0.022729546 0.25415793 -0.25361007
-0.03293345 0.050474524 0.054445006 -0.10319673 -0.016797377 0.21156369 -0.07808152 -0.043496944
-0.17680027 0.07753592 -0.16030164 0.15992248 0.1838348 0.05167671 -0.1673213 -0.13540022
0.25936136 -0.2632888 0.05595079 -0.13729215 0.07496665 -0.007385437 -0.120364174 0.004588337
-0.26042023 0.08447109 0.12704284 0.015163958 -0.20050941 -0.018560166 -0.003197107 0.103608
0.24832186 -0.023294734 0.09211931 0.18605812 -0.06652723 0.075491585 0.20937961 0.0067759035
0.100501485 -0.19617452 -0.1257352 -0.08212632 0.16227467 -0.13186505 -0.23778215 0.31944197
0.049407203 0.10213689 -0.11760897 0.26032835 -0.48304737 0.08252163 0.4092673 0.19428584
0.14929323 0.09399562 -0.091761686 -0.28450778 -0.17936184 -0.05657429 0.1369201 -0.16844872
-0.01590674 0.19612215 -0.2105536 0.028743424 0.15093488 -0.025676278 -0.18302329 -0.014029925
0.0077042705 0.09844211 -0.03177932 0.09976345 -0.20173445 0.034396794 -0.09735833 0.08434195
0.029511407 -0.09206126 0.005169854 0.06994314 0.2568884 -0.14681754 -0.16018404 -0.040107463
-0.30063602 0.22266237 0.009801533 -0.0023826992 -0.07660878 -0.08657428 0.09485994 0.009646061
0.20015402 -0.30971572 -0.028427312 0.10711714 -0.1949286 0.14822742 -0.26320258 -0.021867571
-0.03183587 0.24872324 -0.06973126 -0.1610357 0.043981872 -0.3194403 0.17244452 -0.00732805
0.12092188 0.08087049 -0.054882098 -0.07470535 0.040163573 0.07745408 0.14216709 0.14053291

2 f4 [64]
00000000: 0010 4f3d f7f1 a43d 662c 55bc 2cde 943d
00000010: 972e a83d 59c8 cabc e158 443d c69c 9d3d
00000020: c56d 92bd 0049 95bd 6b9c 6ebd 7259 48bc
00000030: efd6 7e3d c963 9a3d b3ee fd3b f26e 733d
00000040: 7208 893d db0f 91bd e0db 9ebc 6b3b 75bd
00000050: efa4 2fbc 6c5e d73c c6b8 a9bd 1db0 773d
00000060: 5fe4 d63d def2 01bb d246 39bc 2e86 7c3c
00000070: ba7e 0c3d a993 46bc ff70 91bd 14fb 413d
00000080: 3686 343c 25f0 86bd 8507 58bc e343 06bd
00000090: f88f 6dbd e6b2 58bd daa4 02bd 0234 8abc
000000a0: 6083 2c3d 6ce0 13bd 4efe bd3c 5793 aa3d
000000b0: 70b9 82bc 1473 043d 841c 2a3d 2911 8f3d
000000c0: fdfd 983d 300b a33d 378c c7bb f36b 033d
000000d0: 6f41 a8bc 6ee1 973d 2b4b 7b3c c65b 1abd
000000e0: 7dbe 94bd 0b9a 8b3d fe2a bdbd 3745 c83c
000000f0: 5f11 b43d a8ea 9ebc a914 d63c 1100 053d
0.05055237 0.08053964 -0.013011074 0.072689384 0.08212011 -0.024753736 0.047936324 0.07695918
-0.07149843 -0.07289314 -0.05825464 -0.012228357 0.062216695 0.07538564 0.0077494024 0.059431978
0.06691064 -0.07083102 -0.019391954 -0.05987112 -0.010720476 0.026290141 -0.08287196 0.06047069
0.10492777 -0.0019828598 -0.011308389 0.01541285 0.034300543 -0.012120166 -0.071016304 0.047358587
0.0110183265 -0.06588773 -0.013185387 -0.032779586 -0.057998627 -0.052904986 -0.031895496 -0.016870502
0.042117476 -0.036102697 0.023192551 0.08328884 -0.015957564 0.03233631 0.0415311 0.06985695
0.074703194 0.07961118 -0.006089713 0.03208537 -0.020539014 0.07416044 0.015337746 -0.03768518
-0.07262895 0.06816491 -0.09236716 0.024447067 0.08792376 -0.019399002 0.026132898 0.032470766

3 f4 [64, 64, 3, 3]
00000000: ecd9 a2bd 198a 3fbd 5740 e8bc 6467 80bb
00000010: be0c 1cbc ac4a b23c 208f 4dbc 94b8 183d
00000020: 62a7 113c 7e4b fe3b f3bc 36bb 3307 973b
00000030: 8db4 123d d200 8abd 5129 073c d70d e8b9
00000040: a4ec 713d 3344 5d3c ce81 d43d e705 343d
00000050: 7d96 7bbd 1f78 afbc 18c5 fbbc f984 5abd
00000060: 3f41 d43d fbb4 7c3d 0963 ccbc 51df 313d
00000070: 1947 c1bd 2bcb 83bd 69ec 1cbd 9370 21bb
00000080: f7ad a7bd 7034 bdbd 013c 973c d820 483d
00000090: cf17 8fbd dfad b5b9 eef5 6fbd 41b4 833d
000000a0: 3368 56bc 0dd7 45bc 7a4c c23c 80c3 643d
000000b0: 83a4 0dbd 62de 0a3b 5cc0 783b 9d34 a03c
000000c0: 6838 a0bd c548 793d 5888 acbc b41a 5e3d
000000d0: d43a c6bb f242 9fbc 8fcb 8cbd a18c 623c
000000e0: 3c12 93bd 84b8 9e3c fd43 6f3d 6ccd ffbd
000000f0: 6e75 24bd 8884 66bd f517 0d3d ebfe bdbc
00000100: 1aa9 563a 17ba 32bc 5bd3 da3a d3fe c0bc
00000110: bcd3 88bc 20d1 c5bb c5b2 0f3e ca59 f33c
00000120: c87a 1c3d 465a ac3d 1be5 18bd e3d8 9e3d
00000130: bcbd 87bd 93e5 44bb 724e 493d ca1e 30bd
00000140: 203e d0bc d124 0fbc 7ad1 cb3d a2ea 123e
00000150: 148d 933d cea6 e9bb bdf6 54ba c6a1 d9bd
00000160: a7b7 00be 9021 1cbd 24d3 053d 72ed 50bd
00000170: b76a bfbc 6431 b23d 1e74 bdbb d50b 52bd
00000180: f17d 013d 384f b8bd 1ecc 16bc b0fc ba3d
00000190: ea9e acbc 0a17 5d3d 7f54 39bc d176 0f3e
000001a0: 00bc 31bd f581 bf3b f558 b9bc cbd6 8cbc
000001b0: d359 23bd 33ef 78bd 5840 86bd b752 4dbd
000001c0: 821b a1bc 350a 59bd a79b a3bc 32ff 7fbd
000001d0: d01e 483d f132 893c 2b32 dcbd 14a9 c63d
000001e0: f658 3e3d 1732 693d 2fdd 5fbd eb73 66bc
000001f0: 5052 09bd 8fc1 d9bc c4ba 5ebc 9a5a 443d
00000200: 23fa 9fbb f849 31bb 306d 0dbd 84d6 813c
00000210: 2626 c53c ddc7 0d3d 71ab be3d 90e8 ea3c
00000220: 5d04 223d 2139 563d 6a58 d2bd 8fcd d2bc
00000230: 85b4 11bd f003 b7bd 656a 723c 372a b1bd
00000240: 8e7b e1bd c61a 7cbd ef5b 983c fac2 93bb
00000250: ae72 aebd 5bc0 b23a e43b 3c3d c176 22bd
00000260: f3c0 503d 6a7d 41bd 77b7 75bb 1c2f a9bd
00000270: 1168 29bc 3616 553b 33cd 91bd 5828 72bd
00000280: 2379 153c 6f81 643d 2693 3c3d f848 01be
00000290: 11ee 703c 2ab7 c93c 6325 c53c 5512 b6bc
000002a0: 6550 0cbc 4af6 2abb a0f2 d83c f3d6 aebd
000002b0: 4c70 7dbd ace7 9c3c bd4f 03be 1cc8 b53c
000002c0: e49b d1bd dd00 6ebc 9b3f 03be f88c 3fbd
000002d0: adcd 74bd 508e ca3d b81f 1ebd 5589 023d
000002e0: c828 bfbc 6889 d6bd 4764 f9bd 7cdb 423d
000002f0: dcca 99bd eb59 993d 3273 e9bb 8d44 31bb
00000300: a861 a23d af78 b8bd 731b be3c 0f6c febb
00000310: d93c a9bd e289 d63b f280 c33d dbcd 083d
00000320: 8a28 85bd 6beb d3bc 4098 ffbc 3ad5 30bd
00000330: 2422 e5bd b0b6 20bd 7a58 793d ebfb 5a3c
00000340: e9dc 71bc 59d2 cb3b 8441 e8bb 2ede a53b
00000350: af0b 20bd 8a07 283d c68d b3bd 406d e9bb
00000360: fd4b 41bd 328e dd3c 6a49 e3bb d13f f7bd
00000370: 2133 2b3c f701 6abc 222f 0d3e 28d1 3d3d
00000380: 50ee d43d e725 7cbc 0eb4 8b3d dfc0 203d
00000390: 6aa2 a2bd afd2 5cbd 44be e6bc f1f5 a33c
000003a0: b6fe de3d 7e83 04bd 789f 5cbb a9b3 0bbd
000003b0: edf2 56bd bb9c 11bd 8e0a 0bb7 3311 10bd
000003c0: 2a17 8fbb 656b feba 8deb 063e f03d 1f3d
000003d0: 43d7 683d df16 1d3d 4305 08bd 3977 5abd
000003e0: 6111 af3d 8b32 b1bd e4ef c93c d4ec b53c
000003f0: 55d9 d93c 4eba fb3b 75af 15be 74c6 833d
-0.079517215 -0.04676256 -0.028350992 -0.003918575 -0.009524522 0.021764122 -0.012546331 0.037285402
0.008890005 0.007760464 -0.0027883619 0.0046090125 0.035816718 -0.06738438 0.008249597 -0.000442608
0.05906357 0.0135050295 0.10376321 0.04395094 -0.061422814 -0.021419583 -0.03073363 -0.05334947
0.10364007 0.061696034 -0.024949567 0.04342586 -0.09437389 -0.064352356 -0.038311396 -0.002463375
-0.08187478 -0.09238517 0.01846123 0.048859447 -0.06986963 -0.00034652554 -0.058584146 0.06430865
-0.0130863665 -0.012075198 0.023718107 0.055850506 -0.03458072 0.002118968 0.0037956452 0.019556338
-0.07823259 0.060860414 -0.021061108 0.054224685 -0.0060494933 -0.019441102 -0.06874763 0.013827474
-0.07181212 0.019375093 0.058414448 -0.12490353 -0.040151052 -0.056278735 0.034446675 -0.023192843
0.000818865 -0.010908625 0.0016695069 -0.02355901 -0.016702525 -0.0060368925 0.14033039 0.0297059
0.03820303 0.08415656 -0.037327867 0.077562116 -0.06627986 -0.0030044063 0.049147077 -0.042998113
-0.025420249 -0.008736805 0.09952064 0.14347318 0.07204643 -0.0071304804 -0.0008123925 -0.10626559
-0.12570058 -0.038117945 0.032672063 -0.051007695 -0.023366315 0.08700827 -0.0057816645 -0.051280815
0.031614248 -0.08999485 -0.009203939 0.091302276 -0.02107187 0.05397705 -0.011311649 0.14010169
-0.04339218 0.0058443495 -0.022625426 -0.017192265 -0.039880585 -0.060774993 -0.06555241 -0.05012771
-0.019666437 -0.05298825 -0.019971682 -0.062499233 0.04885751 0.016747924 -0.10751756 0.09700218
0.04647156 0.056932535 -0.054654296 -0.014065723 -0.033525765 -0.026581554 -0.013594333 0.047937967
-0.0048821135 -0.0027052145 -0.034527957 0.01584936 0.024066042 0.034614433 0.093100436 0.028675348
0.039554942 0.052300576 -0.1027077 -0.025732784 -0.035572547 -0.08936298 0.014795874 -0.0865063
-0.11009894 -0.06154897 0.018598525 -0.004509327 -0.08517967 0.0013637649 0.045955554 -0.039664034
0.05096526 -0.047238745 -0.0037493387 -0.082609385 -0.010339753 0.003251446 -0.07119217 -0.059120506
0.0091231195 0.0557875 0.04603877 -0.12625492 0.014705197 0.024623472 0.024065679 -0.022225538
-0.008564089 -0.002608674 0.02648288 -0.08537092 -0.061874673 0.019153439 -0.12823386 0.022190146
-0.10234812 -0.014526573 -0.12817232 -0.046765298 -0.05976646 0.09890425 -0.038604468 0.03186925
-0.023334876 -0.10475427 -0.121773295 0.047572598 -0.075093955 0.074878536 -0.007124328 -0.0027048916
0.07928783 -0.090073936 0.023206448 -0.0077643464 -0.08263559 0.0065471986 0.09546079 0.033399444
-0.06501873 -0.025869092 -0.031200528 -0.0431721 -0.111881524 -0.039236724 0.060875393 0.013365726
-0.014762142 0.0062201438 -0.007087888 0.0050618863 -0.039073642 0.041022815 -0.087672755 -0.0071236193
-0.04719161 0.027045343 -0.006936242 -0.12072719 0.010449202 -0.014282695 0.13787511 0.046342045
0.10397017 -0.015389896 0.06821452 0.039246436 -0.07941134 -0.05391186 -0.028166898 0.020014735
0.10888426 -0.032351963 -0.0033664387 -0.034106884 -0.052477766 -0.03554986 -8.287503e-06 -0.035172652
-0.004366775 -0.0019410668 0.13175793 0.038877428 0.056845915 0.03835189 -0.033208143 -0.053336356
0.08548237 -0.086522184 0.024650522 0.022207655 0.02659289 0.0076821214 -0.14617713 0.06434336

4 f4 [64]
00000000: a218 a8bc dfbe 93bc a451 d3bc e0d5 c83c
00000010: dbac 6e3c 92bb 7fbc 0942 073c 33ab b4bc
00000020: ad29 3ebd 2fc7 1e3d 05a6 3a3b 2d16 713b
00000030: 678c d63c 4b03 943c 6c98 fa3c 9187 c5bc
00000040: ac87 863c 6099 40bc 3b50 273c 67dc 883c
00000050: 86a7 553c fc4f cc3c 8948 573b f242 303c
00000060: 662c 5c3c 72e9 d3bc f51b ca3a f9d5 2d3d
00000070: f465 60bc 3cec 62bc 1c04 343d f8ab 3dbc
00000080: 543f 18bc c8db 9db8 354f 11bd 1966 90bc
00000090: e14d 52bd c262 343d 5a62 d13c e5cb f5bb
000000a0: 2bf0 063b 3a08 2ebd ad77 32bd c41f 2dbd
000000b0: c494 afba 92dc debc fb1c c4bc 20b1 acbc
000000c0: 6790 06bd a934 6e3c 4041 ce3c c367 fd3c
000000d0: 979b 6fbc 1525 1d3d 41a3 34bc f944 edbb
000000e0: 21de a5bb 652d a33b 7e1d 013d 323a 9ebc
000000f0: 3f6f 1abc 25e4 d9bc 13e0 06bd b2a5 efbc
-0.020519558 -0.01803535 -0.025795765 0.024516046 0.014567579 -0.015608685 0.00825549 -0.02205429
-0.046426464 0.038764175 0.0028480303 0.00367869 0.026189996 0.018067976 0.030590259 -0.024112495
0.016422115 -0.011755317 0.0102119995 0.016706659 0.013040429 0.024940483 0.003284963 0.0107581485
0.01343832 -0.025868151 0.0015419709 0.04244039 -0.0136961825 -0.013850268 0.04394923 -0.011576645
-0.009292442 -7.527281e-05 -0.03547593 -0.017626809 -0.051343802 0.044039495 0.025559593 -0.0075011128
0.0020589929 -0.042488314 -0.043571163 -0.042266622 -0.0013395776 -0.027204785 -0.0239396 -0.021080554
-0.032852557 0.014538922 0.025177598 0.030933267 -0.014624498 0.038365442 -0.011025251 -0.007240888
-0.00506188 0.0049797767 0.031522267 -0.019314859 -0.009425937 -0.026598046 -0.032928538 -0.029253814

5 f4 [32, 64, 3, 3]
00000000: 6ce1 123d 6281 ed3c d466 babd c94d 03bc
00000010: 3de5 473a d262 43bd 4ff9 b73d 079b c0bd
00000020: 137c b83c d3fe cc3c 1c23 083d 3b4f eabc
00000030: b7ef 953d 4382 3e3d 4f19 4bbc 5eb4 71bc
00000040: 5d16 33be 860d ed3d 9981 bd3c 031f bfbd
00000050: 49fb c1bd 722c aabd b82e 9c3d 3763 9ebd
00000060: 9091 903d b7bd 0d3c aa73 b03c c805 cd3a
00000070: 906f 723c 5f36 913b 1bb4 3d3d 2303 223d
00000080: f3f0 b5bd 0d98 e63c 3247 05ba 39c0 ecbb
00000090: b926 983d 026f 143d 370a eb3b a95f 4abc
000000a0: fa1f 48bd 8a20 b2bb 3e5e f4b9 25dd 713b
000000b0: ef78 d4bc b678 6bbd 001e 15bd 45fb ab3b
000000c0: a4b8 af3d a093 893c 2a8d a3bc 4b4c 8b3b
000000d0: fd5b d83c a163 593d c870 52bd b3de 663d
000000e0: 269e 93bc 3881 273d 126e 0d3d 133a afbc
000000f0: ee97 1abd 6540 62bc 87e5 913c 5619 3b3c
00000100: 3a28 e3bc 227f b4bc 5b57 663c e0ae b63c
00000110: cf92 8e3d 3d54 65bd f284 753d e916 b13c
00000120: e649 8e3b 4358 b1bc 7673 113d 2fed 973d
00000130: 0807 2abd c9ed 6d3c 9b95 d63c 919f 033d
00000140: ac7c 413d 6bd8 e4bd 5e3e 0dbd 5a2b 2dbc
00000150: d729 753c 80d1 003d 4a11 c4bd 0c28 283c
00000160: 005e 74bd f343 633d b592 a43d a688 01bc
00000170: 84a3 15be 852f a73d 855b 32bd 3c95 13bd
00000180: 3a4e 5b3a 0f23 373e b0a5 233d 5be6 a53c
00000190: 9a15 2bbc 4bd4 95bb 4e35 a43c fa19 5dbd
000001a0: c7ed 8cbd f9bf 9bbb 4516 633c a731 8dbc
000001b0: ad40 e6bc f5cb f93c 1a3b c0bc f446 8c3d
000001c0: fcdb 34bb 281c 013e 79a9 073d 5971 a3bd
000001d0: 1ac0 33bd 12a4 25bb 71eb 1b3c c9df 5b3c
000001e0: c87f 2c3d 34e7 65bd d49c aabd 47a9 323c
000001f0: 783d 273d 3e11 97bb f9b5 5f3d 1afe 493d
00000200: c6c9 ea3b cde4 35bc 449e fa3c 7e36 bc3c
00000210: 3da3 adbc 5376 f43c 3b1c 2fbc 2200 053d
00000220: f1cd 8d3d d668 153d 533d 08bd fa5d 2bbc
00000230: 3e3a 863c affd 003d 9b4f f03c 3b34 c9bd
00000240: f134 dabc 74a8 12bd 6f8e 0b3d 1a14 f6bd
00000250: 587c 123b 2dbf cc3c c532 0fbe c3e3 51bd
00000260: 2ced 16bb c416 223d ad5c 133d e692 913d
00000270: e96c 9b3d b75e d13c 4ad4 91bd f3b5 573d
00000280: 540c b7bc c70a c33a 2058 1d3d 4e7c 0d3d
00000290: 6f3c abbd 10e6 01bc 974d 8c3c 3989 153d
000002a0: 4042 84bc 9254 083d 8712 07bd e115 423c
000002b0: 90f0 323d e269 a73c d32b 1a3d 4d54 33bc
000002c0: 1cd6 4b3d acf6 123c 336c 913c a031 623d
000002d0: 147e b63c 19aa 4bbb 7f12 073c 4bb0 c63c
000002e0: 77f6 3f3c 5a98 0fbd b4a3 813c 2b9f babc
000002f0: fa05 ef3c a55c a6bc 3e9d 7ebd a882 1c3c
00000300: 6ab9 8dbc a1b4 e43d 9e14 853c fa55 f8bd
00000310: 8b79 18be bffc ae3d 7783 5d3d 0062 923c
00000320: dd8e 1a3d 9828 2e3d 3b80 873d ee8e cd3c
00000330: 3bc4 a6bc e47e 3abc 811b a6bb 1c02 06bc
00000340: b6ac 4cbd e2df 433d 93ce e3bb fcdf 0f3d
00000350: 29d7 7d3d dbfe de3d afa2 483c 0e8a 8c3d
00000360: 1b1f e7bc a954 003c 4a34 363d 1a79 4e3d
00000370: 0e23 d83d 6d95 a23d e2da 023c 86d4 cdbb
00000380: 7a18 54bc 640a e3b9 b09d 22bd 208d bc3c
00000390: 662d 91bd c652 f93c 0571 e63b f167 2f3d
000003a0: c15c 4cbc fbfc 6dbc bb6a 4dbd db0e 69bc
000003b0: 8b22 563d 202a 8a3c 2312 953d e205 cd3c
000003c0: e634 ffbd f408 50bc 9706 9e3c 50eb bcbc
000003d0: c654 873d c775 85bc c58d 02be a34f fb3d
000003e0: dedd 66bd f436 8d3c 06a3 2ebd 5da8 3abd
000003f0: 1529 833d a840 05be a13f d8bd d1cc c7bd
0.03585951 0.028992359 -0.09101644 -0.008014151 0.0007625407 -0.047701664 0.08983099 -0.09404569
0.0225201 0.025023853 0.033236608 -0.028602233 0.073211126 0.046510946 -0.012396171 -0.014752476
-0.17489 0.11574845 0.023133086 -0.09332087 -0.09471757 -0.083092585 0.076260984 -0.077337675
0.07059014 0.008651189 0.021539528 0.0015641982 0.014797106 0.0044315304 0.04631434 0.039553773
-0.08883848 0.028148675 -0.00050841563 -0.007225063 0.07429261 0.036238678 0.0071728486 -0.012351909
-0.04885862 -0.005436008 -0.00046609523 0.0036905494 -0.025936572 -0.057488166 -0.036405563 0.0052484595
0.08580139 0.016794026 -0.019964773 0.004251038 0.02641105 0.05307353 -0.051377088 0.056364726
-0.018019747 0.040894717 0.0345288 -0.021389997 -0.037742548 -0.013809298 0.017809642 0.011419615
-0.027729142 -0.022033278 0.014058913 0.022300184 0.06961595 -0.05598854 0.05994124 0.02161737
0.0043423055 -0.021648532 0.035510503 0.07418286 -0.04151061 0.014522024 0.026194384 0.032134596
0.047238037 -0.11174091 -0.034483306 -0.010569418 0.014963589 0.031449795 -0.0957361 0.010263454
-0.059659958 0.055484723 0.08035795 -0.007906115 -0.14613158 0.081633605 -0.04354431 -0.036030993
0.00083658437 0.17884468 0.039952934 0.020251444 -0.010442162 -0.0045724264 0.020044949 -0.05397985
-0.0688129 -0.0047531095 0.01386029 -0.01723559 -0.028107012 0.030492762 -0.023465682 0.06849471
-0.0027596941 0.12608397 0.033120606 -0.07980604 -0.043884374 -0.0025274795 0.009516583 0.013420054
0.04211405 -0.056128696 -0.08330694 0.010904617 0.040830106 -0.0046102097 0.054616902 0.049314596
0.0071651665 -0.011101914 0.030593045 0.022975203 -0.021196002 0.029841578 -0.010687883 0.03247083
0.06924046 0.036476932 -0.03326161 -0.0104594175 0.016385194 0.03149193 0.029334834 -0.09824415
-0.026636573 -0.03580518 0.034071382 -0.12015553 0.0022351947 0.024993503 -0.13984211 -0.0512426
-0.002302955 0.039572492 0.035977054 0.07108097 0.07589132 0.025557859 -0.07120569 0.052663755
-0.022344746 0.0014880531 0.03841412 0.034542374 -0.08361136 -0.007928386 0.017126841 0.03650782
-0.016144872 0.033283778 -0.032976653 0.011846037 0.04368645 0.020436231 0.03763945 -0.010945392
0.049764737 0.008969944 0.017751789 0.055223107 0.022276916 -0.0031076728 0.008244156 0.024253985
0.011716477 -0.035057403 0.01582513 -0.022780975 0.029177655 -0.020307848 -0.062161677 0.009552635
-0.017300326 0.11167265 0.016245183 -0.12125774 -0.14890115 0.08544301 0.054080453 0.017868996
0.0377339 0.042519182 0.06616255 0.025092568 -0.020357242 -0.011382792 -0.0050691967 -0.008179214
-0.049969397 0.047820933 -0.006952116 0.035125718 0.06197277 0.108884536 0.012245818 0.06862269
-0.028213074 0.007832685 0.04448346 0.05040846 0.10553561 0.07938657 0.007986756 -0.0062814383
-0.012945289 -0.00043304556 -0.039701164 0.023016512 -0.07088737 0.030434977 0.007032516 0.042823736
-0.012473286 -0.014525647 -0.050150614 -0.014224733 0.052279036 0.01686579 0.0727885 0.02502722
-0.124612615 -0.012697447 0.019290252 -0.023061424 0.06607966 -0.016291512 -0.12749393 0.12271049
-0.056363933 0.017238118 -0.04263594 -0.04557072 0.0640432 -0.13012946 -0.10559011 -0.097558625

6 f4 [32]
00000000: c8d1 e1bc 0d94 03bd acd1 263d d8fd 1a3c
00000010: f759 cfbb 849b 35bc 9147 413d 9362 c3bb
00000020: 77bc ea3c b542 3a3d 35d8 bbbc 4cb7 bf38
00000030: 768a d3bc aecd c53c b4ba c03b 8c7d 0d3d
00000040: 199c d4bb ea2f 093c a5d8 bebc 84f6 813c
00000050: 057f 773c 3a36 de3c 8bb4 21bc 32a6 aa3c
00000060: 345b 88bc 9b0a 253c 10b8 683c 9db6 13bd
00000070: ff3b 48bd 5d03 243d b6a0 43bd 7277 c83c
-0.027565852 -0.032123614 0.040727302 0.009459935 -0.0063278633 -0.011084441 0.04718739 -0.0059626787
0.02865432 0.045473773 -0.022930244 9.1417314e-05 -0.02582286 0.024145927 0.0058816317 0.03454356
-0.006488335 0.00837324 -0.023296664 0.015864618 0.015105967 0.027125467 -0.009869705 0.020831201
-0.016645052 0.010073329 0.01420404 -0.036062825 -0.04888534 0.04004227 -0.047760688 0.024471018

7 f4 [27, 32, 3, 3]
00000000: 3959 ba3d 4972 8c3d 7f73 94bd 8bd7 40bd
00000010: 1819 6038 8c38 093e bb03 0fbc 6288 8ebd
00000020: 3216 99bc 9e1a 03bc 35de a93d 3110 21bc
00000030: a48d 9f3c 6f52 003e 12df e5bc 6d79 ac3c
00000040: 1cef 1b3c bf51 233d c4a5 83bc 3161 593d
00000050: 49ff 1abd 4150 a0bc e2b7 303e d053 b23c
00000060: 63e5 d9bd 6319 bdbd e0d6 11bc 1f64 163d
00000070: 7f06 78bc 730d 2e3c 1a48 4f3d 12d8 6f3d
00000080: 6636 393c ed64 4b3d 308e 9a3a 3113 3fbd
00000090: f88d f8bc cac3 3fbd b7c8 303d 55d9 9dbc
000000a0: bf8d 2e3d fdb6 f13b abf7 4dbd 9827 d1bc
000000b0: cfbc 53bd ed37 b0bd 6e33 1dbd 4034 8dbd
000000c0: 8d18 2abd 88f6 b7ba 05b5 9dbd 8e35 093d
000000d0: 2b29 dc3d d3ef 8b3d d2b6 373c f689 62bd
000000e0: 35ce 223d 4cf3 8ebd 27f0 ca3d e858 c03a
000000f0: 0c86 c93d a2cc 293d d02d 483d f13e 5b3d
00000100: d681 64bd f1ef 1f3d 1769 4abd 9030 bebd
00000110: 7277 483d 09c5 2b3d 194b ddbc 1138 103d
00000120: 5c07 813b a05b ed3c f366 1d3d be90 1dbd
00000130: 3668 87bd 4f68 c3bc 46d3 c8bd 3816 04ba
00000140: 14db 873d 8ceb a7bc 25a4 1f3e eb85 82be
00000150: 0806 68bc 4627 f13d 1470 10bd 1ee2 963c
00000160: c4a8 0d3d 9cd4 67bd 0237 70bd 86be 5fbc
00000170: 7f2e 5b3d dcd3 6b3d 2099 733d 66f5 273b
00000180: 32dc 7b3c e348 13bd e5dd 9cbc b6a7 16bd
00000190: 66d5 45bd 87bc eeba ee78 b73c fd0c cdbb
000001a0: e61f 873d e123 d73d 6fef 37bc af5a b1bc
000001b0: fc15 9abc 4c1d fa3c c5a3 91bb 0575 80bc
000001c0: 7cc3 2e3d babe da3d 95f2 843d 1b9d 0c3d
000001d0: deaf 5e3c 3042 0e3c fca9 8bbd 6384 913d
000001e0: 1a2d 3ebd 3276 e9ba d306 8339 fae6 e7bd
000001f0: 110f 813c 72f7 cdbc 4fad 3f3d cc5e e13c
00000200: 39da a53b 763c a43d 2997 54bb 3634 a8bd
00000210: e75a 023c fc29 863d dfd8 2c3d cc9a f1bd
00000220: 6a16 803b 4e71 92bd 6350 57bd 5867 3e3a
00000230: f445 debb 5e35 8d3d 84ac 6d3d b617 a43d
00000240: b029 a7bd a036 863d 6072 58bc 94df b03d
00000250: eceb 1a3d 89f1 ea3c b0d1 a8bc c6e6 2dbc
00000260: ea28 073c c716 a13c 38c0 c73c dc41 76bd
00000270: 0ed2 5f3d 171b b2bd b030 1f39 77dd f0bc
00000280: 1c26 903d 42e7 263d af4c dcbc 4ae8 bc3d
00000290: 149b 65bb df2a 013d dbb7 1b3d 9bfb 953d
000002a0: 2f01 46be f696 7b3d 905e 6ebc dee8 7cbd
000002b0: 1505 a63d c41c 993d ef2e e0bd c4a2 733c
000002c0: 046b 68bd 74ee ccba e704 6f3d 43bb 873d
000002d0: 2c1c ab3d 808e b83c 2bf5 85bd f96b 423d
000002e0: 9b5e 8e3d ebac 893d 4758 483d d708 253d
000002f0: 0b62 053d 27c6 543d a5f8 56bd 17d6 003c
00000300: a262 25bd 657c 863d 4f3c d53c c461 0dbd
00000310: 088e 0cbe 0452 d23c 8e3a d9bc 0525 e8bd
00000320: 83d6 723d 5713 ee3b 5f1d c6bd f168 d73c
00000330: ef5a 41bc 0e98 b9bd e0e2 5a39 8304 7cbd
00000340: 8381 a9bb ebcb 85bc ff1c 1abd 8c43 423d
00000350: 44cd 9bb8 6d99 8a3d 6919 153d 9414 ebbc
00000360: 54f7 353d 8dac 353d 5a4c 23ba 0cfb 3d3d
00000370: 2976 5b3a 1f7d cd3d 5195 163d 79b3 ebbc
00000380: c5b9 593d e059 883d 3252 2e3a 9b4f 8dbb
00000390: 6208 23bb fce2 82bc 156e 10bd d932 01bc
000003a0: 2201 eabc 4f64 debc 2744 c3bc 727c 04bd
000003b0: 42ef b63d b0a7 773d 9a8e f1bc bf4a b53d
000003c0: 29d6 b73b 82d9 8e3c 4b96 cfbd 5699 a5bc
000003d0: e041 ef3c 4f87 7ebd fa22 b7bc f0e9 003d
000003e0: d265 373b b4a0 363d 8681 1a3d 10aa c63c
000003f0: 9ca8 42bd 1af9 57bc 68dd 72bd 0dc3 e23c
0.09099049 0.06857736 -0.07248592 -0.047080558 5.3429132e-05 0.13400477 -0.008728917 -0.06959607
-0.018687341 -0.0080019515 0.08294336 -0.0098305205 0.01947672 0.12531446 -0.02806047 0.021053994
0.009517457 0.03987288 -0.016070254 0.053071205 -0.037841115 -0.019569518 0.17257646 0.02176848
-0.10639455 -0.09233358 -0.008901328 0.036716577 -0.015138268 0.010623324 0.05060587 0.05855567
0.0113044735 0.049656797 0.0011791643 -0.04664916 -0.030341133 -0.04681758 0.043160167 -0.019268671
0.04261565 0.00737655 -0.050285023 -0.025531575 -0.051693734 -0.08604417 -0.038379125 -0.068947315
-0.04152732 -0.0014035264 -0.07700542 0.03349834 0.1075004 0.06832852 0.011213021 -0.05530735
0.039747436 -0.06979999 0.09909087 0.0014674934 0.098400205 0.04145492 0.048871815 0.053526822
-0.055787884 0.039047185 -0.049416628 -0.09286606 0.048942037 0.041935954 -0.027013348 0.03520972
0.003937645 0.028974354 0.03842826 -0.038468115 -0.066116735 -0.02385345 -0.09805922 -0.0005038711
0.06633583 -0.02049806 0.1558996 -0.25492796 -0.014161594 0.11775069 -0.035263136 0.018418368
0.034584776 -0.056599244 -0.05864621 -0.013656264 0.05351114 0.05757509 0.059472203 0.0025628447
0.015372323 -0.035958182 -0.019148776 -0.036781035 -0.048299216 -0.0018214145 0.022396531 -0.006257652
0.06597881 0.1050489 -0.011226519 -0.021649687 -0.018809311 0.030531548 -0.0044445717 -0.0156808
0.042666897 0.106809095 0.06491581 0.034329515 0.013591735 0.0086827725 -0.06819531 0.07105329
-0.04642973 -0.0017811714 0.00024991352 -0.11323352 0.015754255 -0.025142405 0.04679614 0.027511023
0.0050614146 0.080193445 -0.0032438731 -0.082130834 0.007956243 0.06550977 0.042199012 -0.11797103
0.003908922 -0.071505174 -0.052566897 0.0007263324 -0.0067832414 0.068949446 0.05802585 0.08012335
-0.08162248 0.06553388 -0.013210863 0.08636394 0.03782265 0.028679626 -0.0206078 -0.010614103
0.008249501 0.019664181 0.02438365 -0.060121402 0.054643683 -0.08696573 0.00015181559 -0.029402478
0.07038519 0.04074789 -0.026892034 0.09223993 -0.003503506 0.031535026 0.038017135 0.073233806
-0.19336389 0.061423264 -0.014548913 -0.061745517 0.08106438 0.0747619 -0.10946452 0.014870349
-0.056742683 -0.0015635029 0.058354285 0.06627514 0.08354983 0.022528887 -0.06540903 0.047466252
0.06951638 0.067224346 0.048912313 0.040291633 0.032564204 0.051946785 -0.05248322 0.007863543
-0.040377267 0.06566695 0.026029734 -0.034517065 -0.13726056 0.025673874 -0.026517179 -0.11335186
0.059286606 0.007265489 -0.09673571 0.026295157 -0.011801465 -0.09062205 0.00020874618 -0.06152774
-0.0051729097 -0.016332587 -0.03762531 0.0474277 -7.42921e-05 0.06767545 0.036401186 -0.028696336
0.044425324 0.04435401 -0.0006229334 0.046381995 0.0008371794 0.100336306 0.036763493 -0.028772103
0.05315568 0.06657767 0.00066498213 -0.004312468 -0.0024876823 -0.015977375 -0.035261232 -0.007885658
-0.028564993 -0.02714744 -0.023836209 -0.032345243 0.089323536 0.060462654 -0.029486943 0.08852147
0.0056102467 0.0174377 -0.10136088 -0.020214718 0.029206216 -0.06214076 -0.022355545 0.0314731
0.0027984274 0.044586852 0.03772118 0.024251014 -0.04752408 -0.013181949 -0.05929318 0.027680898

8 f4 [27]
00000000: fd20 973c 92eb 58bc 7a8a a63c 02b6 9c3c
00000010: f8a1 013d 9d01 fd3c 44de 273d d8c5 cf3c
00000020: dc2d 773b 4fb9 993b 914f c03c 7639 1c3c
00000030: dd02 8fbb efeb a53a 937b 3c3b dbb9 ad3c
00000040: da38 a63c 20be 5abc cf68 31bc ef7a c23c
00000050: 6b5d b0bb 4c7c 403c 0ba5 2a3c e43a 6ebc
00000060: 1a09 d33b bff8 1c3a d93d 20bc
0.018448347 -0.013239758 0.020329703 0.019129757 0.031648606 0.030884558 0.040983453 0.025362894
0.0037716543 0.00469128 0.02347544 0.009535184 -0.004364355 0.0012658815 0.002876018 0.021206787
0.02029078 -0.013350993 -0.010828211 0.02374026 -0.00538223 0.011748385 0.010415326 -0.014540408
0.006440294 0.0005987994 -0.009780371
